visual-odom/camera_params.npz (npz, 768 bytes, 3 tensors)

newcameramtx f8 [3, 3]
000000 00 00 00 90 16 4e 84 40 00 00 00 00 00 00 00 00
       649.7610168457031 0.0
000010 60 fb a6 78 d6 c4 71 40 00 00 00 00 00 00 00 00
       284.30236115672415 0.0
000020 00 00 00 c0 e5 5b 84 40 40 60 f1 9c fc 0c 6f 40
       651.4871826171875 248.40583655494447
000030 00 00 00 00 00 00 00 00 00 00 00 00 00 00 00 00
       0.0 0.0
000040 00 00 00 00 00 00 f0 3f
       1.0

dist_coeff f8 [1, 5]
000000 d3 53 2a 53 a4 46 a2 bf 2b e0 7f 0d 6f 42 b7 3f
       -0.035695204879779084 0.09085744933679567
000010 be 4f 28 1e 4a 23 19 bf 88 e7 ff df 5e 26 8a bf
       -9.589328650633133e-05 -0.012768498621870142
000020 2f cf 23 f3 ec a2 71 bf
       -0.004305768570919174

camera_matrix f8 [3, 3]
000000 00 22 08 c9 e3 73 84 40 00 00 00 00 00 00 00 00
       654.4862232814194 0.0
000010 32 0b 7d 44 c8 2f 72 40 00 00 00 00 00 00 00 00
       290.9863934406777 0.0
000020 6b 8d a7 0d 80 71 84 40 50 7c 90 b4 57 20 6f 40
       654.187526043895 249.01070621700137
000030 00 00 00 00 00 00 00 00 00 00 00 00 00 00 00 00
       0.0 0.0
000040 00 00 00 00 00 00 f0 3f
       1.0
